src/python/DefaultChrome/Default/optimization_guide_prediction_model_downloads/995f68ce-ad4a-4b99-b056-0cee4857c8cd/model.tflite (tflite, 409956 bytes, 166 tensors)

context_transformer_0/bottleneck_input/norm/add f4 [32]
0	0xbe29406e	-0.16528484
1	0x3d9705c4	0.073741466
2	0xbcc2c730	-0.02377662
3	0xbd95f49c	-0.07322046
4	0x3d5b9449	0.053608213
5	0xbe432458	-0.19056833
6	0xbe05fafe	-0.13084027
7	0x3cadd9b0	0.021221966
8	0x3d49d938	0.04927942
9	0xbe811c58	-0.25216937
10	0x3cefd35e	0.029275592
11	0xbda072ca	-0.07834394
12	0xbd16a87d	-0.036781777
13	0x3d94d75c	0.07267639
14	0xbc97ec62	-0.018545333
15	0xbbd9a539	-0.0066420105
16	0x3dc956ce	0.0983101
17	0x3c386d45	0.011256521
18	0x3c7b6870	0.015344724
19	0x3dc0043e	0.09375809
20	0xbba019f4	-0.0048859064
21	0xbd3dc9f8	-0.04633519
22	0x3d30cb18	0.043162435
23	0x3d7fc546	0.062443994
24	0xbc1b7260	-0.009487718
25	0x3cfd7c56	0.030943077
26	0xbd347e3f	-0.04406571
27	0x3e10e145	0.14148434
28	0xbe57e126	-0.21081981
29	0xbbe82cac	-0.0070854034
30	0xbd9946f4	-0.07484236
31	0xbcfbe5ba	-0.03074919

context_transformer_1/bottleneck_input/norm/add f4 [32]
0	0x39a2a520	0.00031022076
1	0x3c66a458	0.014077269
2	0xbcaaae3e	-0.020835038
3	0xbdceba28	-0.100941
4	0x3da3fed9	0.08007593
5	0x3c33198c	0.010931384
6	0x3cee7116	0.029106658
7	0xbd9873b2	-0.07443942
8	0x3c27b4af	0.010235949
9	0x3dceb982	0.100939766
10	0xbe2e90fa	-0.17047492
11	0x3e809909	0.25116757
12	0xbd130964	-0.035897627
13	0xbda37eea	-0.07983191
14	0xbe253051	-0.16131712
15	0xbd5b17f7	-0.05348965
16	0x3e40dd2b	0.18834369
17	0x3d00a5c1	0.031408075
18	0x3d567251	0.052355114
19	0x3de4a6d6	0.11164634
20	0x3da498de	0.080369696
21	0xbc447f02	-0.011993172
22	0xbb93d77c	-0.0045117717
23	0xbe17e3de	-0.14833018
24	0xbcfa0503	-0.030519968
25	0x3d6344d4	0.05548556
26	0x3d05269a	0.032507516
27	0x3dcabf95	0.098998226
28	0x3d5fec9e	0.054669015
29	0x3e603808	0.21896374
30	0x3c966c61	0.018362226
31	0x3cce6f0c	0.025199436

mention_transformer_0/bottleneck_input/norm/add f4 [32]
0	0x3de3cb03	0.11122706
1	0xbe61aff8	-0.22039783
2	0x3bb7d058	0.0056095533
3	0x3d97e4f4	0.07416716
4	0x3db77a21	0.08958841
5	0xbe314c52	-0.1731427
6	0x3d4b5d16	0.04964932
7	0x3ec700f2	0.3886791
8	0xbdc1d7c4	-0.09464982
9	0xbe8634c9	-0.26212147
10	0x3d8aebd5	0.06783263
11	0x3e485f3b	0.19567578
12	0x3db592d7	0.08865898
13	0xbe9702f2	-0.29494435
14	0xbe3e0c60	-0.18559408
15	0x3d759b90	0.05996281
16	0x3e2d8b0c	0.16947573
17	0xbc5e8c06	-0.013583189
18	0xbe75dc68	-0.2400986
19	0xbe26ae72	-0.16277483
20	0x3e833e65	0.2563354
21	0x3e2d1062	0.16900781
22	0x3dccfbfc	0.10009
23	0xbd83bbf1	-0.06432331
24	0xbea584ce	-0.32327884
25	0x3e3cef38	0.1845063
26	0x3d8e1e98	0.06939429
27	0x3d7fac66	0.06242027
28	0xbd0a00f4	-0.033692315
29	0xbd958c3c	-0.07302138
30	0x3d81e4f2	0.06342496
31	0x3e3a4ed8	0.18194139

mention_transformer_1/bottleneck_input/norm/add f4 [32]
0	0x3e1b298d	0.15152569
1	0xbe262f8c	-0.16229075
2	0xbd4ec162	-0.050477393
3	0x3dd0db62	0.10198094
4	0x3dc42e32	0.095791236
5	0x3e691f3e	0.22765824
6	0x3e9be66d	0.30449238
7	0x3d2855f0	0.04109758
8	0x3e9922d1	0.29909375
9	0x3dc4cc40	0.0960927
10	0xbd471085	-0.04859974
11	0x3dd501af	0.10400712
12	0xbe4336d0	-0.19063878
13	0xbd8ad6de	-0.06779264
14	0x3bd3c1d0	0.0064623132
15	0x3d92768c	0.07151517
16	0x3ecc1482	0.39859396
17	0xbd6b41f4	-0.057435945
18	0xbec4e3f3	-0.3845516
19	0xbe0d8254	-0.13819247
20	0xbdb81e96	-0.08990209
21	0x3d235b0c	0.03988175
22	0x3e99b6ba	0.30022222
23	0x3e572d5f	0.21013401
24	0xbdad3221	-0.08456827
25	0x3e397a49	0.18113054
26	0xbec97ae2	-0.39351565
27	0xbd465873	-0.048424195
28	0x3e01172f	0.126065
29	0x3d08c2b5	0.033388812
30	0xbd1962c2	-0.0374477
31	0x3df47ed9	0.11938257

context_transformer_0/attention/value/add;context_transformer_0/attention/value/einsum/Einsum;context_transformer_0/attention/value/add/ReadVariableOp/resource f4 [32]
0	0xbd8acd2d	-0.067774154
1	0xbd7fe1bf	-0.062471148
2	0x3da9e57e	0.08295725
3	0xbd2d26a2	-0.04227317
4	0xbdf8cb3c	-0.12148139
5	0x3cbff942	0.023434285
6	0x3d3ae8f7	0.04563233
7	0xbdcf3187	-0.101168685
8	0xbd87661c	-0.06611273
9	0xbc45b916	-0.012068054
10	0xbd36cde7	-0.044629958
11	0x3c6feb05	0.014643435
12	0xbd4d104c	-0.05006437
13	0xbc86c0ee	-0.016449418
14	0x3d1171b0	0.03550881
15	0x3d548305	0.051882762
16	0x3dac15f5	0.084026255
17	0xbd058715	-0.032599527
18	0xbd22686f	-0.039650377
19	0xbd5a42d3	-0.053286385
20	0xbd826a68	-0.06367952
21	0xbb082070	-0.0020771287
22	0xbd81654c	-0.06318149
23	0xbd591097	-0.052994337
24	0xbd806ce7	-0.062707715
25	0xbc5ad02b	-0.013355295
26	0x3d4a4353	0.04938061
27	0x3dc309d8	0.09523362
28	0xbd8fffcc	-0.07031211
29	0x3dc2ad77	0.09505742
30	0xbbbc5b73	-0.0057482063
31	0x3b8075b3	0.003920281

context_transformer_0/bottleneck_input/norm/mul f4 [32, 32]
0	0x3d208851	0.0391925
1	0xbe83175b	-0.25603756
2	0xbeddab77	-0.4329488
3	0x3e6e4a5f	0.23270558
4	0x3ce9076a	0.028445918
5	0x3e41f759	0.18942012
6	0xbd5dc762	-0.054145224
7	0xbdaa4894	-0.083146244
8	0x3dc99ec9	0.09844739
9	0xbe580318	-0.2109493
10	0x3b53c46b	0.003231312
11	0xbcad1a67	-0.021130754
12	0xbcd2b8bd	-0.025722856
13	0x3c2abbfd	0.010420796
14	0x3dfe0431	0.12403143
15	0x3e779771	0.24178864
16	0x3cfe89c5	0.031071553
17	0x3e80a512	0.2512594
18	0x3e117a54	0.1420682
19	0xbd6a4d00	-0.05720234
20	0x3ebaefa5	0.3651096
21	0xbf432673	-0.76230544
22	0xbe809461	-0.25113204
23	0x3e80a13d	0.25123015
24	0xbeac8cfd	-0.33701316
25	0x3e412057	0.18859993
26	0xbe0b7f5d	-0.13622804
27	0x3db71479	0.08939452
28	0xbd9c2ecf	-0.076261155
29	0x3e98fbce	0.29879612
30	0xbd26268f	-0.040564116
31	0x3d8b05fa	0.06788249
32	0x3f0780d9	0.5293098
33	0x3e47781e	0.19479415
34	0x3e3cafd8	0.18426454
35	0xbe1ca941	-0.1529894
36	0x3edbc260	0.42921734
37	0x3d4b97db	0.049705368
38	0xbf065d4d	-0.52486116
39	0x3ec006eb	0.37505278
40	0x3ed0b93d	0.40766326
41	0x3ecca2af	0.39967868
42	0xbf06960a	-0.5257269
43	0x3da7db03	0.0819607
44	0xbe1318bf	-0.14364909
45	0xbd80e884	-0.06294349
46	0x3ed900a9	0.42383316
47	0xbeab0dd9	-0.33409002
48	0xbf6c4187	-0.92287487
49	0xbed0e511	-0.40799764
50	0xbd74c55f	-0.05975854
51	0x3e6bc843	0.23025613
52	0xbbbe8c40	-0.005815059
53	0x3d6160a0	0.05502379
54	0xbdaf12bf	-0.085484974
55	0x3e6fce8d	0.23418637
56	0xbe747749	-0.23873629
57	0x3f7cfe18	0.98825216
58	0x3f016736	0.5054811
59	0x3d9ad313	0.075597905
60	0x3dba2427	0.09088927
61	0xbb3c1bbd	-0.0028703057
62	0x3ea73b77	0.32662556
63	0xbe8f814d	-0.28028336
64	0x3c91d0b4	0.017799713
65	0xbe222501	-0.15834428
66	0xbe89aad6	-0.2688815
67	0xbe5fda2b	-0.21860568
68	0xbc6b78bc	-0.014372047
69	0x3eb88b79	0.3604391
70	0xbe7f5ea3	-0.24938445
71	0x3da01bbd	0.07817791
72	0xbdbe3ee2	-0.09289338
73	0x3d8fd938	0.07023853
74	0x3e5011bb	0.20319264
75	0xbd835997	-0.06413572
76	0xbed60583	-0.4180108
77	0xbc772a42	-0.015085759
78	0x3e642122	0.22278264
79	0xbe62d517	-0.221516
80	0x3d242f0c	0.04008393
81	0xbd7da510	-0.061924994
82	0xbdc527e1	-0.09626747
83	0x3e1c65ce	0.1527321
84	0x3e22f293	0.15912847
85	0x3e5b7cf1	0.2143438
86	0x3eccb117	0.3997886
87	0x3dbacf2d	0.09121547
88	0xbdb421c5	-0.087955035
89	0x3dd2fd36	0.103022024
90	0x3ed2b25a	0.41151696
91	0xbe2f8e21	-0.17144062
92	0x3e174ad8	0.14774644
93	0xbe24a107	-0.16077052
94	0xbc16d98d	-0.009207142
95	0x3e98cfe8	0.2984612
96	0x3e64c235	0.22339709
97	0xbd6f3953	-0.058404278
98	0xbdb92d75	-0.09041873
99	0x3e10c12b	0.14136188
100	0x3e268285	0.16260727
101	0xbdc04069	-0.09387285
102	0x3d35100d	0.04420476
103	0xbcbd51c8	-0.023110285
104	0x3dded18d	0.108798124
105	0x3ddcb3e9	0.10776503
106	0xbda6fe50	-0.08153975
107	0xbe7b7f5d	-0.24560304
108	0x3d146a12	0.03623397
109	0xbe3cb945	-0.1843005
110	0xbdb5d883	-0.08879187
111	0xbdee6f7e	-0.11642359
112	0x3d330574	0.043706372
113	0xbe7926c5	-0.24331196
114	0xbc838e13	-0.016058957
115	0xbe8a597c	-0.27021396
116	0xbe4b6546	-0.19862852
117	0x3e99a326	0.30007285
118	0xbdd47ac1	-0.10374976
119	0x3d7e5c0d	0.062099505
120	0x3e36e364	0.1786018
121	0xbe0125fb	-0.12612145
122	0xbcb3edd9	-0.021964
123	0x3e7e5b9d	0.24839635
124	0x3e56f866	0.20993194
125	0xbe97694c	-0.29572523
126	0xbd923b90	-0.07140267
127	0xbda82708	-0.082105696
128	0x3dbf4b10	0.09340489
129	0x3cd3faec	0.025876485
130	0x3d31630e	0.043307357
131	0xbbc70b31	-0.006074332
132	0x3dea2d0d	0.11434374
133	0xbdd5f910	-0.104478955
134	0xbe0c4a2b	-0.13700168
135	0xbd2ead6a	-0.04264585
136	0x3e058ad4	0.1304124
137	0x3cbd6c42	0.02312291
138	0x3c1a15eb	0.00940464
139	0xbe9f29a8	-0.3108647
140	0xbd8b7743	-0.06809857
141	0x3d18afd1	0.037277047
142	0xbdb6813e	-0.0891137
143	0x3c268081	0.010162474
144	0xbe3f5b49	-0.18687166
145	0xbe98835d	-0.29787722
146	0xbdeac383	-0.11463072
147	0xbc1b2cd2	-0.009471135
148	0xbec51e00	-0.3849945
149	0x3ea35c24	0.31906235
150	0xbd3bb0a9	-0.045822773
151	0x3dd4fd96	0.1039993
152	0x3ea92fd9	0.33044317
153	0x3db9b105	0.09066967
154	0xbe27138f	-0.16316055
155	0xbe306cca	-0.17229
156	0x3e3845a5	0.17995317
157	0xbdc73e4f	-0.09728681
158	0xbcb23849	-0.021755354
159	0xbd2a3ca5	-0.04156174
160	0x3e6711ae	0.22565338
161	0x3e4513cf	0.19245838
162	0x3dfa0744	0.12208417
163	0x3e760b92	0.24027851
164	0x3ee628ed	0.449531
165	0xbecc0eaa	-0.39854938
166	0xbe5e775e	-0.21725222
167	0xbe2439cc	-0.16037673
168	0xbe0b253e	-0.13588426
169	0xbe560513	-0.20900373
170	0x3f0d1a8c	0.5511863
171	0x3ea417f4	0.32049525
172	0x3e989666	0.29802245
173	0x3f2002cc	0.6250427
174	0xbdf3c7f3	-0.11903372
175	0x3dff60da	0.12469645
176	0xbf2daf88	-0.67845964
177	0xbe3a7db9	-0.18212022
178	0x3d92506c	0.071442455
179	0x3e9f65b2	0.31132275
180	0xbdb8f67c	-0.09031388
181	0xbf19758f	-0.59945005
182	0x3dc1c9be	0.094623074
183	0x3f1726a0	0.5904331
184	0x3e143454	0.14473087
185	0xbe8403c9	-0.25784138
186	0xbd9f1b1d	-0.07768843
187	0x3e815362	0.2525893
188	0xbe2edc54	-0.17076236
189	0x3ee70848	0.45123506
190	0x3e60256d	0.21889277
191	0x3eb06c27	0.34457514
192	0x3eb38c27	0.35067865
193	0xbe5f94ca	-0.21834102
194	0xbe90f70a	-0.28313476
195	0x3e803a8d	0.2504467
196	0x3e125290	0.14289308
197	0xbef9d72a	-0.4879697
198	0xbf004087	-0.5009846
199	0x3e35c2d5	0.17750104
200	0x3e99a0bc	0.30005443
201	0xbef548af	-0.47907016
202	0x3e1829d1	0.14859702
203	0xbe090104	-0.13379294
204	0x3e8597a6	0.2609226
205	0x3f0909c0	0.535305
206	0xbef5f64c	-0.48039472
207	0xb9badd1f	-0.00035641433
208	0x3e7552c9	0.23957361
209	0x3e115511	0.14192607
210	0x3e58628b	0.21131341
211	0xbe95b588	-0.2924006
212	0xbd4e9be6	-0.050441645
213	0xbe28b147	-0.16473876
214	0x3b41570d	0.002950135
215	0xbe0ab6fe	-0.13546368
216	0x3d8eb3e1	0.06967903
217	0x3e27347d	0.16328616
218	0xbef6fc9f	-0.4823961
219	0x3d5ad576	0.05342623
220	0xbdfab605	-0.12241749
221	0xbe8ac63b	-0.27104363
222	0xbe778d8e	-0.24175093
223	0xbf1af5a1	-0.6053105
224	0x3e86992b	0.26288733
225	0x3d42dc03	0.0475731
226	0x3ec3da37	0.38252422
227	0x3f20b7e2	0.6278058
228	0x3dd9686c	0.1061562
229	0x3e85a6ee	0.2610392
230	0xbdb09423	-0.08622005
231	0xbd118643	-0.035528433
232	0x3ebbf6a7	0.36711618
233	0x3e9a68ba	0.30158025
234	0x3de349ea	0.11098082
235	0xbd87cbd3	-0.06630673
236	0x3e704359	0.23463191
237	0x3f36c811	0.7139903
238	0x3ea74eee	0.32677406
239	0x3cc31e12	0.02381805
240	0xbf86fc45	-1.0545737
241	0xbf2cb7d2	-0.6746799
242	0xbee5145f	-0.44742104
243	0x3d1e740c	0.03868489
244	0xbeca9419	-0.39566115
245	0x3ee0e8e0	0.4392767
246	0x3b93ad5e	0.004506751
247	0x3eb2330d	0.34804574
248	0xbcd3a4a9	-0.025835352
249	0x3e917065	0.28406063
250	0xbe0b93ed	-0.13630648
251	0x3ebc1116	0.36731786
252	0x3e858ecb	0.26085505
253	0xbe277708	-0.16354
254	0x3e89bca6	0.2690174
255	0xbef96595	-0.48710313

context_transformer_0/kq_shared_bottleneck/norm/mul;context_transformer_0/kq_shared_bottleneck/norm/add;context_transformer_0/attention/key/einsum/Einsum;context_transformer_0/attention/key/add;context_transformer_0/attention/value/einsum/Einsum;context_transformer_0/attention/key/add/ReadVariableOp/resource f4 [32]
0	0xbe8c4efd	-0.27404013
1	0x3e7f5d68	0.24937975
2	0x3eb992ff	0.36244962
3	0x3e71d076	0.23614678
4	0x3e1a2454	0.1505292
5	0x3f1957df	0.59899706
6	0x3e9696d4	0.29411948
7	0x3e64779f	0.22311257
8	0x3c6ad561	0.0143331
9	0xbceb6e2a	-0.028739054
10	0x3d4d7155	0.05015691
11	0x3c893e53	0.016753351
12	0x3c25c843	0.010118547
13	0x3b0882c8	0.0020829905
14	0xbec9f0fb	-0.39441666
15	0x3d01f922	0.031731732
16	0x3d904a92	0.07045473
17	0xbe81d80e	-0.2536015
18	0xbc22c630	-0.009934947
19	0xbedf7dd4	-0.43650687
20	0x3e4546d5	0.19265302
21	0x3e5ebd72	0.21751955
22	0x3eab1bbb	0.33419594
23	0xbc0af767	-0.008481837
24	0x3ec6468b	0.38725695
25	0x3ce0528a	0.027383108
26	0x3c462c0f	0.012095465
27	0x3c6220be	0.013801752
28	0x3ea7e89b	0.3279465
29	0xbea51c4c	-0.3224815
30	0xbe8b5f52	-0.2722116
31	0x3e00754e	0.12544748

context_transformer_0/kq_shared_bottleneck/norm/mul;context_transformer_0/kq_shared_bottleneck/norm/add;context_transformer_0/attention/key/einsum/Einsum;context_transformer_0/attention/key/add;context_transformer_0/attention/value/einsum/Einsum;context_transformer_0/attention/key/add/ReadVariableOp/resource1 f4 [32, 32]
0	0x3c4cceb5	0.012500455
1	0x3e22643e	0.15858552
2	0x3e44c3b3	0.19215278
3	0xbda06afc	-0.07832906
4	0xbe8ea705	-0.278618
5	0xbdefb5d8	-0.11704606
6	0x3dfa30ee	0.12216364
7	0x3e2fe92d	0.17178793
8	0x3dc2e1a9	0.095156975
9	0xbe04d783	-0.12972836
10	0xbdfadcfd	-0.122491814
11	0x3dfd20fe	0.123598084
12	0x3ce30deb	0.027716598
13	0x3e3a7129	0.1820723
14	0xbdf8e106	-0.12152295
15	0xbcafe467	-0.021471215
16	0x3e8d1c71	0.27560762
17	0xbe47784e	-0.19479486
18	0x3cfbc687	0.030734314
19	0x3ea20cb1	0.31650308
20	0x3e8145d7	0.25248596
21	0xbdcf07a8	-0.10108882
22	0x3e3cb6bb	0.18429081
23	0xbe653576	-0.22383675
24	0xbe9dd91f	-0.30829713
25	0x3e1219d3	0.14267664
26	0xbf26cc59	-0.6515556
27	0xbe80010b	-0.25000796
28	0xbe838d07	-0.25693533
29	0x3d23c81c	0.03998576
30	0xbe8e7f1b	-0.2783135
31	0x3e69cfd2	0.22833183
32	0xba67c248	-0.0008840901
33	0x3bb1aa89	0.0054219407
34	0x3c0d0943	0.008608165
35	0x3e493e39	0.19652642
36	0x3e0bc7bc	0.13650411
37	0x3e4baca1	0.19890071
38	0xbd8dd3a5	-0.069251336
39	0x3d0013c6	0.031268857
40	0xbe1ea3f9	-0.15492238
41	0x3d94987c	0.072556466
42	0x3d6967cc	0.056983754
43	0xbba0cde5	-0.004907357
44	0x3d42b4e0	0.047535777
45	0x3d80b4b6	0.06284468
46	0xbd0ae9a0	-0.03391421
47	0x3f00ce10	0.50314426
48	0xbe8bffd4	-0.2734362
49	0x3e2ab8ef	0.16672109
50	0x3e0ee0cb	0.13952939
51	0xbee8f2ef	-0.45497844
52	0xbe7475d6	-0.23873076
53	0xbe9ad15a	-0.30237848
54	0xbe41e150	-0.18933606
55	0x3e21e259	0.15809001
56	0x3e274050	0.16333127
57	0x3d459398	0.04823646
58	0x3f4f3efc	0.8095548
59	0x3dbb33d2	0.09140743
60	0x3bbf18fa	0.005831835
61	0x3e0d2cb1	0.1378658
62	0x3e693792	0.22775105
63	0xbdfb9cf4	-0.12285796
64	0xbe29cda1	-0.16582347
65	0x3ea57c25	0.32321277
66	0x3ec807bd	0.39068404
67	0xbf0a4d9a	-0.5402466
68	0x3c882327	0.016618324
69	0xbf292a4b	-0.6608016
70	0x3f2394cc	0.6389892
71	0xbda8878d	-0.08228979
72	0xbf63e9ef	-0.8902883
73	0x3e1e2030	0.15441966
74	0x3d9f7771	0.077864535
75	0xbbccaf53	-0.006246486
76	0xbe95b56d	-0.2923998
77	0xbeed19da	-0.46308786
78	0xbec760f4	-0.38941157
79	0xbf0a21c1	-0.53957754
80	0x3e2bfea7	0.16796361
81	0x3dec64f1	0.115426905
82	0x3e932080	0.28735733
83	0xbecbd960	-0.3981428
84	0x3d77117b	0.060319405
85	0xbec83ba9	-0.39108017
86	0xbdb09d3d	-0.08623741
87	0xbe4bcd96	-0.19902644
88	0xbdc836fb	-0.09776112
89	0xbdf03c95	-0.11730305
90	0x3ee8048d	0.45315972
91	0x3d825b32	0.063650504
92	0xbdc8da9d	-0.09807322
93	0x3cf41a03	0.02979756
94	0x3da5edfc	0.081020325
95	0x3e0e1ac2	0.13877395
96	0xbd81aee9	-0.063321896
97	0x3c8b694e	0.017017987
98	0xbd4b4054	-0.049621895
99	0x3e36741a	0.17817727
100	0x3dd61221	0.104526766
101	0x3e6a4e6b	0.22881477
102	0x3d094e4a	0.033521928
103	0x3d87e422	0.0663531
104	0xbe3b4dc8	-0.1829139
105	0x3b304a8d	0.0026899904
106	0x3d4f74aa	0.05064837
107	0xbb6da73c	-0.003626301
108	0x3d96f5b1	0.07371081
109	0x3de60498	0.11231345
110	0x3d0b5bf2	0.034023233
111	0x3ee9f449	0.45694187
112	0xbea5b313	-0.32363185
113	0x3dc0fa65	0.09422759
114	0x3dd34d27	0.1031745
115	0xbea81036	-0.32824868
116	0xbe8c7c70	-0.27438688
117	0xbe7ba81b	-0.24575846
118	0xbe4bb1b1	-0.19892003
119	0x3e4097bb	0.1880788
120	0x3e698408	0.22804272
121	0x3d87a7a3	0.06623771
122	0x3f68c818	0.9093032
123	0x3dbafb9e	0.091300234
124	0xbcb041a3	-0.021515673
125	0x3e0442ec	0.12916154
126	0x3e890b47	0.26766416
127	0xbe4c4b7f	-0.19950674
128	0xbdf22040	-0.118225574
129	0x3e43fc44	0.191392
130	0x3e35ce99	0.17754592
131	0x3d47ef58	0.04881224
132	0x3d0ab94a	0.03386811
133	0xbdcf42cb	-0.101201616
134	0x3eb2770b	0.34856448
135	0x3e8dbe30	0.27684164
136	0xbeff2aee	-0.4983744
137	0xbe1aa46f	-0.15101789
138	0xbd0818ef	-0.033226904
139	0x3d44b476	0.048023663
140	0xbb0e1ccd	-0.0021684647
141	0x3db13238	0.086521566
142	0xbe2c333d	-0.16816421
143	0x3ee1f73e	0.44133943
144	0xbe4a15c0	-0.1973486
145	0xbc12d883	-0.008962753
146	0x3e475108	0.19464505
147	0xbebe9497	-0.3722274
148	0xbe1ecb44	-0.15507227
149	0xbedb34c7	-0.42813703
150	0xbe110cfe	-0.14165112
151	0x3cfa914d	0.030586863
152	0x3e04bf30	0.12963557
153	0x3e8d4ea9	0.27599075
154	0x3f526834	0.8219025
155	0xbd977fe0	-0.07397437
156	0xbe10bcdd	-0.14134546
157	0x3eb90b8b	0.3614162
158	0x3e55b047	0.20868026
159	0xbd319733	-0.043357085
160	0xbdf12cc5	-0.11776117
161	0xbd6d5b41	-0.057948355
162	0x3cdb0222	0.026734415
163	0xbf2dc7b7	-0.67882866
164	0x3e77dec4	0.24206072
165	0xbf1764fa	-0.59138453
166	0x3eb29ff2	0.34887654
167	0xbf1f9457	-0.62335724
168	0xbecbb6ea	-0.3978799
169	0x3f0f9f7a	0.56102717
170	0x3e919f4d	0.2844185
171	0xbe58d817	-0.21176182
172	0xbef0f091	-0.47058538
173	0xbf3c6904	-0.7359774
174	0xbd9823e4	-0.074287206
175	0xbf9668e2	-1.1750758
176	0x3d2dba5d	0.042414058
177	0x3f03e0fb	0.5151517
178	0x3d3cea60	0.046121955
179	0xbeb7e2aa	-0.35915118
180	0xbb81b66d	-0.0039585144
181	0x3de826fb	0.1133556
182	0xbe3c3e27	-0.18383084
183	0x3d8f7e15	0.0700647
184	0x3deb2316	0.114813015
185	0xbf274c3d	-0.65350705
186	0x3d026cf3	0.031842183
187	0x3edf52be	0.43617815
188	0x3e94dec3	0.29076204
189	0xbf11cd85	-0.5695422
190	0x3e12ca0e	0.1433489
191	0xbcf23be3	-0.029569572
192	0xbcfc1f29	-0.030776577
193	0xbe1ca1f2	-0.15296152
194	0xbe46d536	-0.19417271
195	0x3e41df1f	0.1893277
196	0x3e924b6c	0.28573167
197	0x3e83fc91	0.2577863
198	0xbe4dd1ba	-0.20099536
199	0xbdf6a340	-0.12042856
200	0x3c460f9e	0.012088684
201	0x3e3556d7	0.17708908
202	0x3dd00e5b	0.10158988
203	0xbe0061e8	-0.12537348
204	0xbca7beca	-0.020476718
205	0xbc883465	-0.016626546
206	0x3e245ecd	0.16051789
207	0x3e42584f	0.18979
208	0xbec15edf	-0.37767693
209	0x3e814525	0.25248066
210	0x3bef67cb	0.0073060743
211	0xbebb91b7	-0.3663461
212	0xbea10ab6	-0.31453484
213	0x3d17b517	0.037037935
214	0xbe8226c6	-0.25420207
215	0x3e77c41c	0.24195904
216	0x3e996d71	0.2996631
217	0xbddf6303	-0.10907557
218	0x3f371df2	0.7153007
219	0x3e7857ea	0.24252287
220	0x3e5b8d01	0.21440507
221	0x3d2cb423	0.04216398
222	0x3e9e2b0b	0.30892214
223	0xbe96a2f8	-0.2942121
224	0xbb91ccbe	-0.004449456
225	0x3d95a031	0.07305945
226	0x3e1255fd	0.14290614
227	0xbe3c8951	-0.18411757
228	0x3dabac64	0.0838249
229	0xbe9a6b78	-0.30160117
230	0x3e8e1c0d	0.27755776
231	0xbb835ee5	-0.004009115
232	0xbeed769d	-0.46379557
233	0x3e147d6e	0.14500973
234	0xbc1803b6	-0.0092782285
235	0x3d9fc332	0.078009024
236	0xbe564aa9	-0.20926918
237	0xbe6e4d53	-0.23271684
238	0xbe837929	-0.25678375
239	0x3d0b4ef6	0.03401085
240	0xbd97428c	-0.0738574
241	0x3e29034b	0.16505162
242	0x3e51300b	0.20428483
243	0xbee527d1	-0.4475694
244	0xbccddeb6	-0.02513061
245	0xbea45f4b	-0.32103953
246	0xbe023169	-0.12714161
247	0xbc87b9ac	-0.016568027
248	0x3d695408	0.056964904
249	0xbcb13ebe	-0.021636363
250	0x3f0f52e8	0.5598588
251	0x3d6cd0ae	0.0578162
252	0xbb545164	-0.0032397145
253	0x3e70953a	0.23494425
254	0x3e0f7c06	0.14012155
255	0x3ced4a04	0.028965957

context_transformer_0/kq_shared_bottleneck/norm/mul;context_transformer_0/kq_shared_bottleneck/norm/add;context_transformer_0/attention/query/einsum/Einsum;context_transformer_0/attention/query/add;context_transformer_0/attention/value/einsum/Einsum;context_transformer_0/attention/query/add/ReadVariableOp/resource;context_transformer_0/attention/Mul;context_transformer_0/attention/Mul/y f4 [32]
0	0x3e4cc1a4	0.19995743
1	0xbe1cbb06	-0.15305719
2	0x3d205de8	0.039152056
3	0xbe41dfa5	-0.1893297
4	0xbda5ab9c	-0.080893725
5	0xbd8ee312	-0.06976904
6	0xbe6ce922	-0.23135808
7	0xbd0ce449	-0.034397397
8	0x3df772bd	0.120824315
9	0xbdd67bd8	-0.1047284
10	0x3e400cec	0.1875493
11	0x3dd230a0	0.10263181
12	0x3e1e89d8	0.1548227
13	0x3e0737e4	0.13204914
14	0xba1de7dc	-0.00060236244
15	0x3d135920	0.035973668
16	0xbe95fddf	-0.2929525
17	0x3e9040c4	0.28174412
18	0xbea564be	-0.32303423
19	0x3e3cb063	0.18426661
20	0xbd44b0c2	-0.048020132
21	0xbe55ef9a	-0.20892182
22	0xbe829e47	-0.2551138
23	0x3dda8fe6	0.10671978
24	0xbe7abd86	-0.2448636
25	0x3d68e976	0.05686327
26	0xbe1049ab	-0.14090602
27	0x3d9a1083	0.075226806
28	0x3ded9026	0.1159976
29	0x3d9c7491	0.07639421
30	0xbd290a56	-0.041269623
31	0x3e4c8af4	0.19974881

context_transformer_0/kq_shared_bottleneck/norm/mul;context_transformer_0/kq_shared_bottleneck/norm/add;context_transformer_0/attention/query/einsum/Einsum;context_transformer_0/attention/query/add;context_transformer_0/attention/value/einsum/Einsum;context_transformer_0/attention/query/add/ReadVariableOp/resource;context_transformer_0/attention/Mul;context_transformer_0/attention/Mul/y1 f4 [32, 32]
0	0xbd7cd122	-0.061722882
1	0x3e25c086	0.16186723
2	0x3d314a33	0.043283653
3	0xbcbec093	-0.023285186
4	0x3cb4c429	0.022066193
5	0x3e2846a7	0.16433202
6	0xbe0094d5	-0.12556775
7	0xbc81a373	-0.015825009
8	0x3d9b75fb	0.07590862
9	0x3cc0d963	0.023541158
10	0x3d0a15e7	0.033712294
11	0xbd94a5e9	-0.07258207
12	0x3d75a326	0.059970044
13	0x3d11108c	0.03541617
14	0x3d5da99a	0.054116823
15	0xbd9874d5	-0.07444159
16	0xbdad686a	-0.08467181
17	0x3d9dbae8	0.07701665
18	0x3d17f7fa	0.037101723
19	0x3bdcb429	0.006735344
20	0xbda62221	-0.08111978
21	0xbe1067f1	-0.1410215
22	0xb6923848	-4.357691e-06
23	0x3d9af6c1	0.07566596
24	0x3d95e382	0.07318784
25	0xbc63e5ac	-0.0139097385
26	0x3bb0b626	0.0053928075
27	0x3d55d424	0.052204266
28	0xbdbe8f96	-0.093047306
29	0xbddea6b4	-0.1087164
30	0x3d85955e	0.0652263
31	0xbd799328	-0.060931355
32	0x3d30ca68	0.04316178
33	0xbda85d1f	-0.082208864
34	0x3b9ccc9e	0.0047851345
35	0xbd4b9766	-0.04970493
36	0xbcc01892	-0.023449216
37	0xbda8aff9	-0.08236689
38	0x3e2b5386	0.1673108
39	0x3d8cac8c	0.06868848
40	0xbd800401	-0.06250764
41	0xbb931883	-0.004489006
42	0xbd297488	-0.0413709
43	0x3d4f8d54	0.05067189
44	0xbd71b947	-0.059014585
45	0x3d85bee4	0.0653055
46	0xbe13c761	-0.14431526
47	0x3df92138	0.12164539
48	0x3da1c551	0.07898963
49	0xbd8810f0	-0.066438556
50	0x3ce65287	0.028115524
51	0xbd895549	-0.0670572
52	0x3d82e033	0.06390419
53	0xbd45d767	-0.048301127
54	0x39fbf66a	0.00048058043
55	0xbd8952ac	-0.067052215
56	0xbd6c4683	-0.057684433
57	0x3c84b482	0.016199354
58	0x3e6e4380	0.23267937
59	0xbd31d480	-0.043415546
60	0xbddebb66	-0.10875587
61	0x3e1e2150	0.15442395
62	0xbd3cc556	-0.04608663
63	0x3dba2b91	0.09090341
64	0xbd55fc60	-0.052242637
65	0x3e060d59	0.13091029
66	0x3e05a28e	0.13050291
67	0x3c573390	0.013134852
68	0x3d90dbb8	0.07073158
69	0xbe7dc8fe	-0.24783704
70	0x3d98b743	0.074568294
71	0x3d0d4cfa	0.03449724
72	0xbe49c741	-0.19704916
73	0xbdd7c900	-0.105363846
74	0x3d153490	0.03642708
75	0xbd45f506	-0.048329376
76	0xbdcbffd7	-0.09960907
77	0xbe6e806f	-0.23291181
78	0x3cfcaa25	0.03084285
79	0xbe4914c5	-0.19636829
80	0xbd332d26	-0.04374423
81	0xbe39c0a8	-0.18139899
82	0x3d871bdb	0.0659711
83	0xbb5853a8	-0.0033008847
84	0xbd028323	-0.031863343
85	0xbe1948bd	-0.14969154
86	0xbd71a55e	-0.058995597
87	0x3bbf5240	0.0058386624
88	0x3cbb7e76	0.02288745
89	0x3b90b2e1	0.0044158553
90	0xbe0b0970	-0.13577819
91	0xbe3438bb	-0.17599766
92	0xbda8a0ab	-0.0823377
93	0x3e745809	0.23861708
94	0x3d272686	0.040808223
95	0x3c569e5a	0.013099277
96	0x3d1ed1ec	0.038774416
97	0xbda5124b	-0.0806013
98	0xbc1b1613	-0.009465712
99	0xbd8ec521	-0.06971193
100	0xbc9bdb78	-0.01902555
101	0xbd99e33e	-0.07514046
102	0x3e4e4963	0.20145182
103	0x3db50051	0.08837951
104	0xbd987d14	-0.07445732
105	0xbd17a0e9	-0.03701869
106	0xbd3adfa2	-0.04562343
107	0x3d834eac	0.0641149
108	0xbd52c8eb	-0.05146114
109	0x3d8c5d9b	0.06853791
110	0xbdded1f1	-0.10879887
111	0x3dda3eb7	0.10656493
112	0x3d8ef22b	0.069797836
113	0xbdafa5fc	-0.08576581
114	0xba7ed9eb	-0.00097218034
115	0xbd522a01	-0.05130959
116	0x3d5c33a4	0.053760186
117	0xbc71fc08	-0.014769562
118	0xbbccae12	-0.0062463367
119	0xbd994646	-0.07484107
120	0xbd85b687	-0.06528955
121	0x3d641c72	0.05569119
122	0x3e7c45a3	0.2463594
123	0xbd2b159e	-0.041768663
124	0xbdb8bcbe	-0.09020375
125	0x3dfd58ac	0.123704284
126	0xbd07920c	-0.033098266
127	0x3d8b02b5	0.06787626
128	0x3bb0da53	0.00539712
129	0x3d230446	0.039798997
130	0x3da38aee	0.07985483
131	0xbe179d44	-0.14806086
132	0x3c5adac5	0.013357823
133	0xbdd2a9f5	-0.10286323
134	0x3e828ffe	0.25500482
135	0x3dea0137	0.11426013
136	0xbe1459e9	-0.14487423
137	0xbca52112	-0.02015737
138	0xbd0f7a41	-0.0350287
139	0x3d268b05	0.040659923
140	0xbd94f83f	-0.07273912
141	0x3d0c10f2	0.034195848
142	0xbdbdfed8	-0.09277123
143	0xbc8abafd	-0.016934866
144	0x3c8574aa	0.016290981
145	0xbdfb2bea	-0.12264235
146	0x3d384d89	0.04499582
147	0xbd6db189	-0.05803064
148	0xbbfbe29c	-0.007686926
149	0xbe3aacd9	-0.18229999
150	0xbc6f4f05	-0.014606242
151	0xbce15a68	-0.02750893
152	0xbcdae691	-0.02672127
153	0x3d12677e	0.03574323
154	0x3e8382a1	0.256856
155	0xbd96ecc3	-0.073693775
156	0xbe5bbcf1	-0.21458794
157	0x3e0b903f	0.13629244
158	0x3b467e81	0.0030287805
159	0x3d248e5a	0.04017482
160	0x3ae5219e	0.0017481332
161	0xbddb5b93	-0.10710826
162	0xbd2734b7	-0.040821757
163	0x3e42a595	0.19008477
164	0x3d93e5b8	0.0722155
165	0xbe8f6231	-0.28004602
166	0xbd080915	-0.033211786
167	0xbd4680e2	-0.048462756
168	0xbd2e1a7c	-0.042505726
169	0xbd9f595b	-0.07780715
170	0x3c0e67a7	0.008691705
171	0xbcd5fe03	-0.026122099
172	0xbdd02a17	-0.10164278
173	0xbe8db397	-0.2767608
174	0x3dd81288	0.105504096
175	0xbda22792	-0.07917704
176	0x3b396fab	0.002829532
177	0xbdf37fc3	-0.11889603
178	0xbd42989d	-0.047508825
179	0x3c48976f	0.012243136
180	0x3d38fea5	0.045164723
181	0x3e1d87b9	0.15383805
182	0xbc5d9e91	-0.013526575
183	0xbc322f57	-0.0108755445
184	0x3c5728d2	0.013132291
185	0xbc9dcb48	-0.019261971
186	0xbec9f45f	-0.39444253
187	0xbe1bdbf8	-0.1522063
188	0x3e6ec3bf	0.23316859
189	0x3e49aa05	0.19693764
190	0x39ce05d2	0.00039295718
191	0xbbc3c917	-0.0059748995
192	0x3da02ec6	0.07821421
193	0xbe55cce9	-0.20878948
194	0xbd5dc220	-0.05414021
195	0x3d2502f8	0.040286034
196	0xbd52c6f2	-0.05145926
197	0xbdfe418a	-0.12414844
198	0x3e18e787	0.1493207
199	0x3cac6973	0.021046376
200	0xbd121ef4	-0.03567405
201	0xbca4633c	-0.02006685
202	0xbd7dee73	-0.06199498
203	0x3d934329	0.07190544
204	0xbd80b638	-0.062847555
205	0x3d20448c	0.03912787
206	0xbde1b40b	-0.110206686
207	0x3e025ba3	0.12730269
208	0x3dd7a2a5	0.10529069
209	0xbda59c5d	-0.080864646
210	0xbd472383	-0.04861785
211	0xbc9bb723	-0.019008225
212	0x3dca11c5	0.098666705
213	0x3e0142e8	0.12623179
214	0x3ca4f150	0.020134598
215	0xbdaacd3e	-0.08339928
216	0xbda7dba0	-0.08196187
217	0x3cf5d853	0.030010378
218	0x3d9e3686	0.07725243
219	0xbd663bd4	-0.0562094
220	0x3d8783a0	0.06616902
221	0x3ddc50b4	0.107575804
222	0xbd6b3738	-0.057425708
223	0x3dadee22	0.08492686
224	0x3ce34e73	0.027747368
225	0xbb052e55	-0.0020321805
226	0x3d9703fe	0.07373808
227	0xbbf50005	-0.007476809
228	0x3cb521f0	0.02211091
229	0xbe3799ea	-0.17929807
230	0x3e109211	0.1411822
231	0x3d3612f1	0.044451658
232	0xbdf3d1db	-0.11905261
233	0xbd02c148	-0.03192261
234	0xbbfbd965	-0.0076858276
235	0x3b99fe1c	0.0046994817
236	0xbdcd99aa	-0.10039075
237	0xbdc32066	-0.09527664
238	0xbd863eb6	-0.0655493
239	0xbd46f194	-0.04857023
240	0x3c780cd4	0.015139777
241	0xbe033208	-0.12812054
242	0x3da09b0b	0.07842072
243	0xbd72399d	-0.059136976
244	0x3caf2d64	0.021383949
245	0xbe01dce4	-0.1268192
246	0xbd2f684b	-0.04282407
247	0xbc2ab2e6	-0.010418629
248	0xbbdf84b2	-0.0068212384
249	0xbc06be50	-0.008224085
250	0x3d047d35	0.03234597
251	0xbdda38ac	-0.106553406
252	0xbdd9ce98	-0.10635108
253	0x3e61d315	0.22053178
254	0x3c958b77	0.018254979
255	0x3d66ffc1	0.05639625

context_transformer_0/ffn_layer_0/intermediate_dense/einsum/Einsum;context_transformer_0/ffn_layer_0/intermediate_dense/Relu;context_transformer_0/ffn_layer_0/intermediate_dense/add f4 [32]
0	0xbe69e599	-0.22841491
1	0xbed0ef64	-0.4080764
2	0xbe9fd4b8	-0.3121698
3	0xbe6ec77a	-0.23318282
4	0xbe9099a8	-0.2824223
5	0xbe9be641	-0.30449107
6	0xbec5df64	-0.38646996
7	0xbe25f5c4	-0.16207033
8	0xbe6bdc52	-0.23033264
9	0xbe996a72	-0.29964024
10	0xbec11218	-0.37709117
11	0xbe69827b	-0.2280368
12	0xbe4bf68c	-0.19918269
13	0xbe546559	-0.20741786
14	0xbe73330f	-0.23749946
15	0xbeac2f92	-0.33630043
16	0xbeb3e1a1	-0.3513308
17	0x3d20bff9	0.03924558
18	0xbecdcdb9	-0.40196016
19	0xbe4d2fcb	-0.20037763
20	0xbe301a8e	-0.1719763
21	0xbe4f6814	-0.20254546
22	0xbe70fd08	-0.23534024
23	0xbec91300	-0.39272308
24	0xbed7b3f0	-0.4212947
25	0xbdf5f427	-0.12009459
26	0xbe5c01e5	-0.21485098
27	0xbe5a63ef	-0.21327184
28	0xbe925e5a	-0.2858761
29	0xbe6d039a	-0.23145905
30	0xbea87dbb	-0.32908425
31	0xbe4f9715	-0.20272477

context_transformer_0/attention/norm/mul;context_transformer_0/attention/norm/add;context_transformer_0/ffn_layer_0/intermediate_dense/einsum/Einsum;context_transformer_0/ffn_layer_0/intermediate_dense/Relu;context_transformer_0/ffn_layer_0/intermediate_dense/add f4 [32, 32]
0	0x3e469136	0.19391331
1	0x3ebbceb6	0.36681145
2	0xbeb79bd9	-0.3586109
3	0xbe813f16	-0.25243443
4	0x3cc13790	0.023586065
5	0x3e625182	0.22101405
6	0x3f1d0aaf	0.61344427
7	0x3e17e863	0.14834742
8	0xbd728177	-0.0592055
9	0x3e0466e8	0.1292988
10	0x3e05bce8	0.13060343
11	0x3e0386c8	0.12844384
12	0xbe3a1290	-0.18171144
13	0x3ea55d99	0.32297972
14	0x3d4d6269	0.05014268
15	0x3e7d989e	0.2476525
16	0xbe671b2a	-0.22568956
17	0xbddfde21	-0.109310396
18	0x3dbf40b4	0.09338513
19	0x3e684990	0.22684312
20	0xbd532e0c	-0.051557586
21	0xbde16251	-0.110050805
22	0x3e36e933	0.17862396
23	0x3e64872c	0.22317189
24	0xbe329b72	-0.1744211
25	0x3da8a6b4	0.08234921
26	0xbe44c7ab	-0.19216792
27	0x3d24ccfd	0.040234555
28	0x3e65fdf3	0.22460155
29	0xbec45c61	-0.3835173
30	0x3e14d571	0.14534546
31	0x3e1af498	0.15132368
32	0xbd3c0f19	-0.045912836
33	0x3d989acd	0.07451401
34	0xbe5662d4	-0.20936137
35	0x3d087e39	0.0333235
36	0xbe4d0910	-0.20022988
37	0x3d8d178a	0.06889255
38	0xbe017376	-0.12641701
39	0x3e75a331	0.23988034
40	0xbd4206c1	-0.047369722
41	0x3dcbc8ed	0.09950433
42	0x3ee4d643	0.4469472
43	0xbe244aaa	-0.16044107
44	0x3d21d750	0.03951198
45	0xbaa8d4db	-0.0012880819
46	0x3e7e6e9a	0.24846879
47	0xbd43b0e9	-0.047776137
48	0x3e3e9949	0.18613161
49	0x3e43afbe	0.19110009
50	0x3e1dbaec	0.15403336
51	0xbdb1a4e1	-0.08674026
52	0xbcae0e9e	-0.021247204
53	0x3d8c0f93	0.06838908
54	0x3e1e628d	0.15467282
55	0x3b2c3a1a	0.0026279748
56	0x3e753aae	0.23948166
57	0xbd8b021f	-0.06787514
58	0xbe32fe88	-0.17479908
59	0xbd5e4170	-0.054261625
60	0x3e962faa	0.2933324
61	0xbdcecd67	-0.10097771
62	0xbe17d351	-0.14826705
63	0xbd8fa3c2	-0.07013656
64	0xbcaff045	-0.021476874
65	0xbe9e1442	-0.3087483
66	0x3dc22fe0	0.09481788
67	0x3de3d19b	0.111239634
68	0xbdff4115	-0.12463585
69	0x3e995125	0.2994472
70	0x3e74982f	0.23886178
71	0xbf101f2f	-0.5629758
72	0xbd575053	-0.052566838
73	0x3ea2078f	0.31646392
74	0x3eb20e77	0.3477666
75	0x3e0c818e	0.13721296
76	0x3e5f8cfc	0.21831125
77	0xbe22d3e4	-0.15901142
78	0x3e7868ce	0.2425873
79	0xbe0bd1b1	-0.1365421
80	0xbde26de4	-0.11056116
81	0x3dc06106	0.09393506
82	0x3db24537	0.08704608
83	0x3d19e843	0.037575018
84	0x3de2d660	0.11076045
85	0x3e9d9b53	0.30782565
86	0x3ea2cae3	0.31795415
87	0x3e58b04b	0.21161
88	0x3d0b6df8	0.03404042
89	0x3d1c4f45	0.038161535
90	0x3ec8fd32	0.39255673
91	0xbd8bf7bb	-0.0683436
92	0xbd8341bb	-0.064090215
93	0x3ebfae12	0.37437493
94	0xbe8c3cf2	-0.27390248
95	0x3d68ab10	0.056803763
96	0x3e216a07	0.15763102
97	0xbd5a5ba2	-0.053310044
98	0x3df654a5	0.120278634
99	0x3dee49b3	0.11635151
100	0xbd8572b9	-0.06516022
101	0x3bb203a5	0.0054325634
102	0xbe2abda1	-0.166739
103	0x3d1e2c6d	0.038616586
104	0xbe30197c	-0.17197222
105	0x3e3d832d	0.18507071
106	0x3e930c45	0.28720298
107	0x3e0b93ca	0.13630596
108	0x3d5d192b	0.05397908
109	0xbd2bbb72	-0.04192681
110	0x3d32e9c5	0.04367997
111	0x3de3a1ac	0.11114821
112	0xbec76a48	-0.38948274
113	0xbc492532	-0.012276934
114	0x3dfcbc7f	0.1234064
115	0x3e538bd3	0.20658807
116	0xbdb6dc48	-0.08928734
117	0xbdd76b6a	-0.105185345
118	0xbd4a508b	-0.049393218
119	0xbd769aef	-0.06020635
120	0xbe72a301	-0.23694994
121	0x3de4198d	0.11137686
122	0x3e40ca13	0.18827085
123	0xbe3cd697	-0.18441235
124	0x3df3f715	0.119123615
125	0xbe893c30	-0.26803732
126	0x3e9a4774	0.3013264
127	0x3e5f2965	0.21793135
128	0x3eabbb66	0.3354141
129	0xbebaaa82	-0.36458212
130	0x3ddfdee5	0.10931186
131	0x3d877fab	0.066161476
132	0xbe31e8b4	-0.17373925
133	0x3e64d144	0.22345454
134	0xbd772e5c	-0.060346946
135	0x3d4910d7	0.049088325
136	0xbe958d30	-0.2920928
137	0x3e99c45f	0.30032632
138	0x3e4c5f3a	0.19958201
139	0x3df14486	0.11780648
140	0x3d71b83f	0.0590136
141	0xbc8e33e8	-0.017358735
142	0x3e2b42ba	0.16724673
143	0x3da8a9d4	0.08235517
144	0xbe926a5f	-0.2859678
145	0xbe0a7dc3	-0.13524537
146	0xbe00085b	-0.12503187
147	0xbd0d1ce7	-0.03445139
148	0xbc478dd5	-0.0121798115
149	0xbd83fe32	-0.06444968
150	0xbe160ec5	-0.14654072
151	0xbcd9a10d	-0.026566053
152	0xbcc25a4f	-0.023724703
153	0xbe015d8f	-0.12633346
154	0x3e2884b6	0.16456875
155	0xbe93f3c6	-0.28896922
156	0x3e7502ff	0.23926924
157	0xbe9abc87	-0.3022196
158	0x3e53ad0f	0.20671485
159	0x3d2066bb	0.03916047
160	0xbdd9e2b5	-0.10638944
161	0x3d827d79	0.06371588
162	0x3e969385	0.29409423
163	0x3ddb99b6	0.107226774
164	0x3e9da16f	0.30787227
165	0x3e77a1e0	0.24182844
166	0x3ec11c61	0.37716964
167	0xbee4041b	-0.44534382
168	0xbd5c4e2f	-0.0537855
169	0x3e866248	0.26246858
170	0xbd8eb301	-0.06967736
171	0xbe76124c	-0.24030417
172	0x3e514dbb	0.20439808
173	0xbec4b2fb	-0.384178
174	0x3d95f318	0.07321757
175	0x3d6ee837	0.058326926
176	0xbf0d45c8	-0.551846
177	0x3e3b7de5	0.18309744
178	0xbe49df23	-0.19714026
179	0x3dc634cb	0.09678038
180	0xbee15ae8	-0.44014668
181	0x3e324cf0	0.17412162
182	0xbde28f02	-0.11062433
183	0xbd2cc8fe	-0.04218387
184	0x3cbdb477	0.023157341
185	0x3d3d0860	0.046150565
186	0x3d2a1d8b	0.04153208
187	0x3da7cf75	0.08193866
188	0xbe4e5451	-0.20149352
189	0xbc810d5e	-0.015753444
190	0x3e864965	0.2622787
191	0x3e04cba9	0.12968315
192	0x3e55fdd8	0.20897615
193	0xbda5da50	-0.080982804
194	0x3da1be95	0.07897679
195	0x3c6a7f56	0.014312586
196	0xbd592453	-0.053013157
197	0x3e168ae4	0.1470142
198	0x3e3b81c6	0.18311223
199	0xbddc1c9e	-0.10747646
200	0xbe487562	-0.19576028
201	0x3e40d64a	0.18831745
202	0x3db38af8	0.087667406
203	0x3e2daa4a	0.16959491
204	0x3d5f8c2f	0.05457705
205	0xbe76007a	-0.2402362
206	0xbdc94a11	-0.0982858
207	0x3e1b7a7f	0.15183447
208	0xbe692586	-0.2276822
209	0xbddc1463	-0.10746076
210	0x3d7b915e	0.06141793
211	0x3e5fdcdd	0.21861596
212	0xbe3387fe	-0.17532346
213	0x3dec1b40	0.11528635
214	0xbe0e86c8	-0.13918602
215	0xbd83122a	-0.06399949
216	0xbe90adf5	-0.2825772
217	0xbd78fff8	-0.060790986
218	0xbdcb979c	-0.099410266
219	0xbe2605b9	-0.1621312
220	0x3e4b3da2	0.1984773
221	0xbeb59654	-0.35466254
222	0x3e226122	0.15857366
223	0xbd9f47e5	-0.07777385
224	0x3ba9143f	0.005159884
225	0xbe387d36	-0.18016514
226	0xbd3adb01	-0.045619015
227	0x3ebc410a	0.3676837
228	0x3d6dbf71	0.0580439
229	0xbe75e62a	-0.24013582
230	0x3ed7f1ac	0.42176569
231	0xbf135050	-0.5754442
232	0x3dbae116	0.09124963
233	0xbd964fc8	-0.07339436
234	0xbec4b48c	-0.38418996
235	0xbc8093f6	-0.015695553
236	0x3c1d7712	0.009610908
237	0xbe9e2045	-0.30883995
238	0xbe808933	-0.25104675
239	0xbd95e48b	-0.07318982
240	0xbec9261c	-0.39286888
241	0x3efdcd71	0.49570802
242	0xbdc98f29	-0.09841759
243	0xbe35e018	-0.17761266
244	0xbea45dcc	-0.3210281
245	0x3e3c7284	0.18403059
246	0xbd28b15f	-0.04118478
247	0x3df9ba29	0.1219371
248	0xbea2a4f2	-0.31766468
249	0x3de46e3e	0.111538395
250	0x3c07d39b	0.008290197
251	0x3d52082f	0.051277336
252	0xbdde248b	-0.10846814
253	0xbe6120aa	-0.21985117
254	0x3e440a0f	0.19144462
255	0x3d88385d	0.066513754

context_transformer_0/ffn_layer_1/intermediate_dense/einsum/Einsum;context_transformer_0/ffn_layer_1/intermediate_dense/Relu;context_transformer_0/ffn_layer_1/intermediate_dense/add f4 [32]
0	0x3de15c1f	0.11003899
1	0xbe2b9725	-0.16756876
2	0x3d3e42c0	0.046450377
3	0xbe2a8823	-0.16653495
4	0xbe8224ee	-0.254188
5	0x3dbd056c	0.0922955
6	0xbeac788c	-0.3368572
7	0xbd8f3504	-0.06992534
8	0xbe80a303	-0.25124368
9	0xbe859f80	-0.2609825
10	0xbdbd1072	-0.09231652
11	0xbe2e2650	-0.17006803
12	0xbeb028b8	-0.34406066
13	0x3e0c9549	0.13728823
14	0xbe81270e	-0.2522511
15	0xbddfcacf	-0.109273545
16	0xbe2c2201	-0.16809846
17	0xbdf2e1e0	-0.118594885
18	0xbe02f5ed	-0.12789126
19	0xbd181ce5	-0.03713693
20	0x3c8dfa68	0.017331317
21	0xbd61b636	-0.05510541
22	0xbc9f651c	-0.019457392
23	0xbe3bf0d7	-0.18353592
24	0x3e3a4b7d	0.18192859
25	0xbea6b5cf	-0.32560584
26	0xbe9458b3	-0.28973922
27	0xbe1b3289	-0.15155996
28	0xbe44e9d0	-0.19229817
29	0xbe479ab0	-0.19492602
30	0xbe9c4ffc	-0.30529773
31	0xbf07fee4	-0.5312331

context_transformer_0/ffn_layer_0/norm/mul;context_transformer_0/ffn_layer_0/norm/add;context_transformer_0/ffn_layer_1/intermediate_dense/einsum/Einsum;context_transformer_0/ffn_layer_1/intermediate_dense/Relu;context_transformer_0/ffn_layer_1/intermediate_dense/add f4 [32, 32]
0	0xbe5bb3d0	-0.21455312
1	0x3e9d2571	0.30692628
2	0x3eceed24	0.404153
3	0xbece4d4e	-0.40293354
4	0xbca8d70b	-0.020610353
5	0x3e67c68f	0.22634338
6	0x3ec49624	0.38395798
7	0xbeb78dea	-0.3585046
8	0xbed886e7	-0.42290422
9	0x3e944d5e	0.28965276
10	0xbe32098f	-0.17386459
11	0xbe07d46c	-0.13264626
12	0x3e0e575c	0.13900512
13	0xbde75ad2	-0.112966195
14	0x3e88ace6	0.2669441
15	0x3e02e88d	0.12784024
16	0xbde4e824	-0.1117709
17	0xbce431ff	-0.027855871
18	0xbe0cfad0	-0.13767552
19	0x3eb91ee6	0.36156386
20	0x3d0d17c7	0.034446504
21	0xbd616bc3	-0.05503441
22	0x3c9221f6	0.01783846
23	0xbe6ca5b6	-0.23110089
24	0x3e11ca5f	0.14237355
25	0x3d6c3dc6	0.0576761
26	0xbefafc63	-0.4902068
27	0xbe9882e2	-0.29787356
28	0xbe4ff790	-0.20309281
29	0xbcdecd68	-0.027197555
30	0xbc8739eb	-0.01650711
31	0xbf06e129	-0.5268732
32	0xbe25c214	-0.16187316
33	0x3c12c337	0.008957676
34	0x3dceac6f	0.10091483
35	0x3e19144b	0.14949147
36	0x3eef0ac0	0.4668789
37	0x3e19f319	0.1503414
38	0x3de51878	0.11186308
39	0x3ccebb88	0.025235906
40	0xbd9e7511	-0.077371724
41	0x3dd3569d	0.103192545
42	0xbcda0818	-0.026615188
43	0xbd6cf8f0	-0.057854593
44	0xbe8d6b8a	-0.27621108
45	0x3e2d069a	0.1689705
46	0xbe26f820	-0.1630559
47	0xbe38c6af	-0.18044542
48	0xbc3419a8	-0.010992445
49	0xbe0b57f1	-0.13607766
50	0x3dcc1364	0.09964636
51	0xbd7f9f00	-0.062407494
52	0xbe25d423	-0.16194205
53	0xbd499eb6	-0.049223624
54	0x3d060045	0.0327151
55	0xbf0774d6	-0.5291265
56	0x3d472b77	0.048625436
57	0x3e5a3591	0.21309496
58	0x3cd9c916	0.026585143
59	0x3e09e408	0.13465893
60	0x3dfad077	0.12246793
61	0xbe8b55b9	-0.2721384
62	0x3dce5684	0.10075095
63	0xbe69ca0f	-0.22830985
64	0xbcbabba3	-0.02279455
65	0x3e0a1fa7	0.13488637
66	0x3e271868	0.16317904
67	0xbcd21e9d	-0.025649363
68	0x3e060107	0.1308633
69	0x3e1748e4	0.147739
70	0x3da0530b	0.07828339
71	0x3dc7d036	0.0975651
72	0xbe6c9b8c	-0.23106211
73	0x3e63ecd8	0.22258317
74	0xbe839539	-0.25699785
75	0x3e3dcf90	0.1853621
76	0x3e92b5d3	0.28654346
77	0x3e0705fa	0.13185874
78	0x3d84236a	0.06452067
79	0x3ea4db97	0.32198784
80	0x3d4cc151	0.04998905
81	0xbe6ba55d	-0.230123
82	0x3e0f47b5	0.13992198
83	0xbca81805	-0.020519266
84	0x3d4eb38a	0.05046419
85	0x3d8e9c0d	0.06963358
86	0xbdbb27dd	-0.09138463
87	0xbf050672	-0.5196296
88	0x3e1d3a47	0.15354262
89	0xbe8a4c53	-0.27011356
90	0x3e395473	0.18098621
91	0xbedbe2ff	-0.42946622
92	0x3daaa8d5	0.083329834
93	0x3dc2bcbc	0.095086545
94	0xbe1ee6f1	-0.15517785
95	0xbf010d83	-0.5041124
96	0x3e13a30e	0.14417669
97	0x3e270b9c	0.16313022
98	0x3e876f2a	0.26452
99	0x3e69d8ae	0.22836563
100	0x3de67c76	0.11254208
101	0xbdee4d72	-0.11635865
102	0x3d517ba1	0.051143292
103	0xbc5a6cdf	-0.013331621
104	0xbde8ead7	-0.11372917
105	0x3e4842ce	0.19556734
106	0xbeafb653	-0.3431879
107	0x3eaca0f5	0.3371655
108	0x3d6fcbe4	0.058544055
109	0xbddadcef	-0.10686671
110	0xbe851e4d	-0.2599968
111	0x3e0143ec	0.12623566
112	0x3cafe4f3	0.021471476
113	0x3ba14a6d	0.0049222023
114	0x3d9bfef6	0.07616989
115	0xbead9adb	-0.33907208
116	0x3ec94d28	0.39316678
117	0x3d34d99e	0.04415285
118	0xbe228174	-0.15869695
119	0xbdb5cb86	-0.0887671
120	0x3d5e3d03	0.054257404
121	0xbe6c437a	-0.23072615
122	0x3cd7a4b7	0.02632366
123	0xbd9bc382	-0.076056495
124	0x3d83fe82	0.06445028
125	0xbd842089	-0.06451518
126	0x3e7685fb	0.24074547
127	0x3e1f12bf	0.15534495
128	0xbe0d657b	-0.13808243
129	0x3e365c90	0.17808747
130	0x3dc78922	0.09742953
131	0xbd862ef6	-0.06551926
132	0x3e54baa6	0.20774326
133	0x3e8a3af2	0.26998097
134	0xbcf6d291	-0.030129703
135	0x3e6975ce	0.22798845
136	0xbcbcb29f	-0.023034392
137	0x3e908a9f	0.2823076
138	0x3e30dd3f	0.17271899
139	0xbdd31ba7	-0.10308009
140	0xbe4e050c	-0.20119113
141	0x3eb57d99	0.35447386
142	0xbd79b8ba	-0.060967185
143	0xbe83890b	-0.25690493
144	0xbd34778b	-0.044059318
145	0x3e6fcee0	0.2341876
146	0xbd2dde82	-0.042448528
147	0x3d234519	0.03986082
148	0x3d04e208	0.032442123
149	0x3e92463e	0.28569216
150	0xbd2e77fc	-0.042594895
151	0x3e948e6d	0.29014912
152	0x3bf43a36	0.0074532283
153	0x3e3aae36	0.18230519
154	0x3e376c6f	0.17912458
155	0xbeae86db	-0.34087262
156	0x3ec329a8	0.3811772
157	0xbd19f645	-0.037588377
158	0x3b38d477	0.002820281
159	0xbe8816cd	-0.26579896
160	0xbea23c16	-0.31686467
161	0xbed408d6	-0.4141299
162	0xbcbe1e9d	-0.023207957
163	0xbe964045	-0.2934591
164	0x3da98c60	0.082787275
165	0x3e86328f	0.26210448
166	0x3e7c6155	0.24646504
167	0xbd65ea8d	-0.05613189
168	0xbe03d768	-0.1287514
169	0x3e454bd5	0.19267209
170	0x3ec407e5	0.38287273
171	0xbdbf83c7	-0.093513064
172	0x3d956cbd	0.07296131
173	0xbd493f7b	-0.049132805
174	0x3e7a1dc4	0.24425417
175	0xbcd28f24	-0.02570302
176	0x3cfc389b	0.03078871
177	0xbca298c8	-0.019848242
178	0x3e180a97	0.1484779
179	0xbe7383dc	-0.23780769
180	0x3ef50a09	0.4785922
181	0xbbf1a2ab	-0.007374128
182	0xbe8878a9	-0.26654556
183	0x3d904704	0.07044795
184	0xbc5d541b	-0.013508822
185	0xbea1026f	-0.3144717
186	0x3d458ce2	0.04823006
187	0xbe12fe8c	-0.14354914
188	0x3ea538f4	0.32270014
189	0xbdb5f5fa	-0.08884807
190	0xbdc6b78d	-0.09702978
191	0xbefd8b72	-0.4952045
192	0x3daee851	0.085404046
193	0x3daa1df9	0.08306498
194	0xbeb080fd	-0.3447341
195	0x3eeb5950	0.45966578
196	0x3dc2afce	0.09506188
197	0xbdce7804	-0.10081485
198	0xbcfa1a0e	-0.030530002
199	0xbd833d0a	-0.06408127
200	0x3e1fb32f	0.15595697
201	0x3d7f8ca6	0.062389992
202	0xbcea6e8d	-0.028617168
203	0xbe74a7f0	-0.23892188
204	0xbe2cbfa3	-0.16869979
205	0xbcaddd56	-0.021223705
206	0xbe35baf1	-0.17747094
207	0xbea9f889	-0.3319743
208	0x3d2ed1c9	0.042680535
209	0xbcd8dedf	-0.02647346
210	0x3bdd7f64	0.006759571
211	0xbdd7ca07	-0.105365805
212	0xbe6deb00	-0.23234177
213	0x3d89c31f	0.067266695
214	0x3c494a54	0.012285788
215	0xbd7c6ce0	-0.06162727
216	0xbd828b31	-0.06374205
217	0x3cfbb119	0.030724095
218	0x3c608bbe	0.013705192
219	0x3de23ce1	0.11046768
220	0x3e4a51a5	0.19757707
221	0x3e8eeb5d	0.27913943
222	0x3d219127	0.03944507
223	0x3e435d4b	0.19078557
224	0x3ee84d4e	0.4537148
225	0xbdcb404b	-0.09924372
226	0xbe095c82	-0.13414195
227	0x3e400790	0.18752885
228	0x3e81bc4c	0.25338972
229	0x3d8be62c	0.06831011
230	0x3f020f8a	0.5080496
231	0x3d84733b	0.06467291
232	0x3c8de18c	0.017319463
233	0x3e37106c	0.17877358
234	0xbd2c025f	-0.04199445
235	0x3d81f4d3	0.06345525
236	0xbeb0f4d5	-0.34561792
237	0x3e3a21df	0.18176983
238	0xbe29ed79	-0.16594495
239	0x3cb71878	0.022350535
240	0x3d8a8109	0.06762893
241	0x3e474b5d	0.19462343
242	0xbbd610a0	-0.0065327436
243	0xbddb5ca2	-0.10711028
244	0xbc48b5ad	-0.012250346
245	0x3e82cf64	0.2554885
246	0xbe0b7fe4	-0.13623005
247	0x3cabdc4c	0.02097907
248	0xbe70ca12	-0.23514584
249	0xbe77435c	-0.2414679
250	0x3d03ea08	0.03220561
251	0xbdfaf918	-0.12254542
252	0x3e2c9066	0.16851959
253	0x3c92297d	0.017842049
254	0x3cb90909	0.022587316
255	0x3df72e21	0.12069345

context_transformer_0/ffn_layer_2/intermediate_dense/einsum/Einsum;context_transformer_0/ffn_layer_2/intermediate_dense/Relu;context_transformer_0/ffn_layer_2/intermediate_dense/add f4 [32]
0	0xbe2e73e6	-0.17036399
1	0xbed371ee	-0.4129786
2	0xbe868238	-0.26271224
3	0xbeb22dd0	-0.34800577
4	0xbee071e4	-0.43836892
5	0xbe964ccf	-0.29355475
6	0xbdd60056	-0.10449283
7	0xbdef6b89	-0.116904326
8	0xbde99a65	-0.114064015
9	0xbd90a8d9	-0.07063455
10	0xbe85557e	-0.26041788
11	0xbdf2946c	-0.118447155
12	0xbdbe6573	-0.09296694
13	0xbe6823a2	-0.22669843
14	0xbe4533ff	-0.19258116
15	0xbe70d3ca	-0.23518291
16	0xbe6b5445	-0.22981365
17	0xbe97e715	-0.2966849
18	0xbe935bbd	-0.28780928
19	0xbd280e5f	-0.04102933
20	0xbdb916a9	-0.09037525
21	0xbe07787c	-0.13229555
22	0xbe38ab8c	-0.1803419
23	0xbe48c683	-0.19606976
24	0xbd8445c4	-0.06458619
25	0xbf0dab5e	-0.5533961
26	0xbdde6d90	-0.10860741
27	0xbe9bd33b	-0.30434594
28	0xbea55ffe	-0.322998
29	0xbe38b4bd	-0.18037696
30	0xbe7f403f	-0.24926852
31	0xbe848f57	-0.2589061

context_transformer_0/ffn_layer_1/norm/mul;context_transformer_0/ffn_layer_1/norm/add;context_transformer_0/ffn_layer_2/intermediate_dense/einsum/Einsum;context_transformer_0/ffn_layer_2/intermediate_dense/Relu;context_transformer_0/ffn_layer_2/intermediate_dense/add f4 [32, 32]
0	0x3e606303	0.2191277
1	0xbd0d5d33	-0.03451271
2	0x3e3600f2	0.17773798
3	0x3e561866	0.20907745
4	0x3d5517af	0.05202454
5	0xbe4872b0	-0.19575
6	0xbdd04ac3	-0.1017051
7	0xbe60d587	-0.21956454
8	0x3e11bbb0	0.14231753
9	0xbd0099d0	-0.031396687
10	0x3c70d489	0.01469911
11	0xbe374d3b	-0.17900555
12	0x3d7a3cae	0.061093025
13	0xbe892040	-0.26782417
14	0xbdf31610	-0.118694425
15	0xbeec9990	-0.4621091
16	0xbdfbe0d2	-0.122987404
17	0x3e62d8df	0.22153042
18	0xbd19b246	-0.03752353
19	0x3e3a08ab	0.18167369
20	0x3d11920a	0.035539664
21	0x3d17afe4	0.037032977
22	0xbe13eb41	-0.14445211
23	0xbe7570ef	-0.23968862
24	0xbb899e67	-0.0041997912
25	0xbcd0ff08	-0.025512233
26	0xb95b92a7	-0.000209401
27	0x3c1ffc95	0.00976481
28	0x3ed718c8	0.42011094
29	0xbe90969f	-0.28239915
30	0xbd194a76	-0.037424527
31	0xbcb1a00c	-0.021682762
32	0x3ca4c0ec	0.020111524
33	0xbe276d72	-0.16350344
34	0x3c2fc810	0.010728851
35	0xbd7850b4	-0.06062384
36	0xbda3be28	-0.07995254
37	0x3e0f26c7	0.13979636
38	0x3d059c04	0.03261949
39	0xbc88ecce	-0.01671448
40	0x3d224233	0.039613914
41	0x3d1fdf9f	0.03903162
42	0xbda0eac5	-0.07857279
43	0x3d8da71d	0.0691664
44	0xbda7a973	-0.08186617
45	0xbe52a7d2	-0.20571831
46	0xbde52358	-0.11188382
47	0xbd3743f6	-0.044742547
48	0xbd31e1ca	-0.04342822
49	0xbd05135d	-0.03248917
50	0xbe485992	-0.19565418
51	0x3d49427b	0.049135666
52	0x3d43e0f6	0.04782196
53	0x3ea24f6c	0.3170122
54	0xbde14b86	-0.11000733
55	0xbc900c48	-0.017583981
56	0x3dff188d	0.124558546
57	0xbe4e11bb	-0.20123951
58	0x3e75ce9a	0.24004593
59	0xbde6c563	-0.11268117
60	0xbd4da0fc	-0.050202355
61	0xbe8913fd	-0.26773062
62	0xbddb0fbd	-0.10696361
63	0xbe0a3602	-0.13497165
64	0xbea88dd1	-0.32920697
65	0x3e003b39	0.12522592
66	0xbd8328ee	-0.06404291
67	0x3db1060e	0.08643733
68	0x3e79466e	0.24343273
69	0xbe6b7601	-0.22994234
70	0x3c114847	0.00886733
71	0xbdebcc17	-0.115135364
72	0x3ec3b9e0	0.3822775
73	0xbdccbbc4	-0.09996751
74	0x3d13175c	0.03591095
75	0xbdc6fee1	-0.09716583
76	0xbec6b3ec	-0.38809144
77	0x3dd1d1f0	0.102451205
78	0x3d9ec201	0.07751847
79	0x3e089992	0.13339832
80	0x3dedee25	0.11617688
81	0xbe23d4ae	-0.159991
82	0x3dc3010b	0.09521683
83	0x3e7927ea	0.24331632
84	0xbdd3df9e	-0.10345386
85	0xbe780d4a	-0.2422382
86	0x3d9d2be5	0.07674388
87	0xbdfcc205	-0.12341694
88	0xbdc0ea08	-0.09419638
89	0x3e3e7c2a	0.18602052
90	0x3b77bf73	0.0037803322
91	0x3ea54504	0.32279217
92	0xbe59110f	-0.21197914
93	0x3e949088	0.2901652
94	0x3e453500	0.19258499
95	0x3d8e3331	0.06943358
96	0xbd3436a0	-0.043997407
97	0x3ea17e97	0.31541893
98	0xbd12b942	-0.035821207
99	0xbe9367ee	-0.2879023
100	0x3d7d3552	0.06181843
101	0x3d00d585	0.031453628
102	0xbcce4d78	-0.025183424
103	0x3e0a0a8c	0.13480586
104	0xbd2ff851	-0.042961422
105	0xbd11bf4e	-0.035582833
106	0xbd98835d	-0.074469306
107	0xbe2308be	-0.15921304
108	0x3e173d13	0.14769392
109	0xbdc96ad1	-0.09834827
110	0x3d5cdac0	0.053919554
111	0xbe032e86	-0.12810716
112	0x3ddddc01	0.10832978
113	0xbea80b98	-0.32821345
114	0x3e5db046	0.21649274
115	0xbdb6d914	-0.08928123
116	0xbe394343	-0.18092065
117	0x3e87f6c2	0.2655545
118	0x3d7302c4	0.05932881
119	0xbea3ced7	-0.31993744
120	0x3d9dc110	0.077028394
121	0x3e2b734f	0.16743205
122	0x3c935ec8	0.017989531
123	0x3e8ab50e	0.2709126
124	0xbe0373cc	-0.12837142
125	0x3d2544fa	0.040348984
126	0xbd8082b0	-0.06274927
127	0x3d3d3ca3	0.046200406
128	0xbd2be23f	-0.041963812
129	0xbcb46828	-0.022022322
130	0xbc99a77b	-0.018756619
131	0x3d9f5d1f	0.07781433
132	0xbd3637e2	-0.044486888
133	0x3d8f16e1	0.06986786
134	0x3e90de29	0.28294495
135	0x3e399883	0.18124585
136	0x3da16266	0.07880096
137	0xbe3d0bff	-0.18461607
138	0xbe8f5cd6	-0.28000516
139	0xbd303d9d	-0.04302751
140	0xbdf9fe4c	-0.122067064
141	0x3cef0b4c	0.029180191
142	0xbe7b1dde	-0.24523112
143	0xbda32084	-0.07965186
144	0xbe0d4d86	-0.13799104
145	0x3e9c0b95	0.30477586
146	0xbe03dfee	-0.12878391
147	0x3d2d107c	0.04225205
148	0xbdbf106d	-0.09329305
149	0xbcd225e9	-0.025652843
150	0xbb82d54f	-0.0039927135
151	0x3ad17d4e	0.0015982778
152	0xbd4eccac	-0.05048816
153	0x3c481280	0.012211442
154	0x3e1f70f4	0.15570432
155	0x3db4c8ab	0.08827337
156	0x3e4ce67f	0.20009802
157	0x3e33a0ee	0.17541859
158	0x3d031351	0.032000843
159	0x3b42b20b	0.0029708173
160	0xbdfed464	-0.12442854
161	0xbe2458a6	-0.16049442
162	0xbeb06c4e	-0.3445763
163	0xbe8f9740	-0.28045082
164	0x3c90545d	0.017618353
165	0x3dc465e0	0.095897436
166	0x3e56457d	0.20924945
167	0xbdb5014e	-0.088381395
168	0x3d574174	0.052552655
169	0xbb67334c	-0.0035278378
170	0x3caaacd3	0.020834362
171	0xbd7e1f2e	-0.062041454
172	0xbc8bc576	-0.01706193
173	0x3dc2e7e8	0.09516889
174	0xbdb0c80e	-0.086319074
175	0x3eb2c584	0.34916317
176	0xbe2f044f	-0.17091487
177	0x3dbb1717	0.091352634
178	0x3dc033b1	0.09384859
179	0xbe8bcdd7	-0.2730548
180	0xbe941dd6	-0.28929013
181	0x3ed7bd40	0.42136574
182	0xbe71cdd5	-0.23613675
183	0x3dca36c8	0.0987373
184	0xbc8ff749	-0.01757397
185	0xbe3891b7	-0.18024336
186	0xbd33b9e4	-0.04387845
187	0xbd2d827f	-0.04236078
188	0x3c4a5c82	0.012351157
189	0x3ddbfda3	0.10741737
190	0x3d6ffc56	0.058590256
191	0xbe09c7ed	-0.13455172
192	0x3e514d00	0.2043953
193	0xbe121e39	-0.14269342
194	0xbea5ae7b	-0.3235968
195	0xbea012f5	-0.31264463
196	0xbe382000	-0.17980957
197	0xbdb99bd6	-0.090629265
198	0xbd9c354f	-0.07627355
199	0xbe9d9645	-0.3077871
200	0x3e0ec030	0.13940501
201	0xbc817f75	-0.015807847
202	0xbda82e3b	-0.08211943
203	0x3e7cd89c	0.24692005
204	0xbec0cca2	-0.37656122
205	0xbd478972	-0.048715062
206	0xbb898bf9	-0.0041975942
207	0x3ce5c9fd	0.028050417
208	0x3cbc0f4a	0.02295651
209	0xbd857fe2	-0.06518532
210	0xbdd2c4e7	-0.102914624
211	0xbd580460	-0.052738547
212	0x3daa6450	0.08319914
213	0x3d8cef7f	0.06881618
214	0x3e62aad0	0.22135472
215	0x3e5e9876	0.21737847
216	0xbd133f6e	-0.035949163
217	0xbd872d08	-0.06600386
218	0x3e707100	0.23480606
219	0xbde9da5e	-0.11418603
220	0xbd0c0715	-0.03418644
221	0x3cae85c4	0.021304019
222	0xbdefd9ed	-0.11711488
223	0xbe588944	-0.21146113
224	0xbd72faa6	-0.05932107
225	0x3eee2e30	0.46519613
226	0xbca1f6e0	-0.01977104
227	0x3d3876ed	0.04503529
228	0x3df51815	0.11967484
229	0x3e28ce4a	0.16484943
230	0x3e0550d7	0.13019119
231	0x3df0a536	0.117502615
232	0xbdc979cd	-0.09837685
233	0x3d718585	0.058965225
234	0x3dc4d749	0.09611375
235	0x3e5dd0c5	0.2166167
236	0x3e15dcca	0.14635006
237	0xbd05d622	-0.032674916
238	0x3e02c6fe	0.12771222
239	0xbc5f4123	-0.01362637
240	0xbe330fd5	-0.17486508
241	0x3e6d4231	0.23169781
242	0x3c1ab06d	0.009441477
243	0xbda11386	-0.07865052
244	0x3e5c32f8	0.21503818
245	0x3c493865	0.012281512
246	0xbd72b6eb	-0.059256475
247	0x3de17ce4	0.11010149
248	0xbda894ef	-0.08231532
249	0xbc8654a6	-0.016397785
250	0x3ef84e7c	0.4849738
251	0xbc08fbc8	-0.008360811
252	0xbdbf0710	-0.09327519
253	0xbe864157	-0.26221725
254	0x3d6375a2	0.055532105
255	0x3bac67cc	0.005261397

context_transformer_0/ffn_layer_3/intermediate_dense/einsum/Einsum;context_transformer_0/ffn_layer_3/intermediate_dense/Relu;context_transformer_0/ffn_layer_3/intermediate_dense/add f4 [32]
0	0xbcb6eced	-0.022329772
1	0xbe1c6741	-0.15273763
2	0xbe012a34	-0.12613755
3	0xbe3dbe58	-0.18529642
4	0xbe802177	-0.25025532
5	0xbd8151b2	-0.0631441
6	0xbdc82df8	-0.09774393
7	0xbe0a7957	-0.1352285
8	0x3c030012	0.007995622
9	0xbc3ea787	-0.011636621
10	0xbdad3c03	-0.08458712
11	0xbe95499e	-0.29157728
12	0xbec3f814	-0.38275206
13	0xbe7d7229	-0.2475058
14	0xbe63f671	-0.22261979
15	0xbd610df6	-0.054944955
16	0xbe682005	-0.22668464
17	0xbe4a2289	-0.19739737
18	0xbca854ab	-0.020548185
19	0xbe0343fc	-0.12818903
20	0xbe163954	-0.14670306
21	0xbcb57877	-0.022152169
22	0xbe59c9b3	-0.21268348
23	0xbdb8f6ab	-0.09031423
24	0xbdd07154	-0.101778656
25	0xbcf05578	-0.02933763
26	0xbe9a2ae6	-0.30110854
27	0xbe7c1866	-0.24618682
28	0xbe9bda25	-0.3043987
29	0xbeb5f0f4	-0.35535395
30	0xbe8c61bc	-0.27418315
31	0xbdabf819	-0.0839693
